…
nput Image. It is observed that ResNet50 is giving good accuracy on (224,224) shaped image. | . input_tensor = keras.Input(shape=(224,224,3)) #make a ResNet model resnet_model = keras.applications.ResNet50(include_top = False,weights=&#39;imagenet&#39;,input_tensor = input_tensor) resnet_model.summary() . Model: &#34;resnet50&#34; __________________________________________________________________________________________________ Layer (type) Output Shape Param # Connected to ================================================================================================== input_2 (InputLayer) [(None, 224, 224, 3) 0 __________________________________________________________________________________________________ conv1_pad (ZeroPadding2D) (None, 230, 230, 3) 0 input_2[0][0] __________________________________________________________________________________________________ conv1_conv (Conv2D) (None, 112, 112, 64) 9472 conv1_pad[0][0] __________________________________________________________________________________________________ conv1_bn (BatchNormalization) (None, 112, 112, 64) 256 conv1_conv[0][0] __________________________________________________________________________________________________ conv1_relu (Activation) (None, 112, 112, 64) 0 conv1_bn[0][0] __________________________________________________________________________________________________ pool1_pad (ZeroPadding2D) (None, 114, 114, 64) 0 conv1_relu[0][0] __________________________________________________________________________________________________ pool1_pool (MaxPooling2D) (None, 56, 56, 64) 0 pool1_pad[0][0] __________________________________________________________________________________________________ conv2_block1_1_conv (Conv2D) (None, 56, 56, 64) 4160 pool1_pool[0][0] __________________________________________________________________________________________________ conv2_block1_1_bn (BatchNormali (None, 56, 56, 64) 256 conv2_block1_1_conv[0][0] __________________________________________________________________________________________________ conv2_block1_1_relu (Activation (None, 56, 56, 64) 0 conv2_block1_1_bn[0][0] __________________________________________________________________________________________________ conv2_block1_2_conv (Conv2D) (None, 56, 56, 64) 36928 conv2_block1_1_relu[0][0] __________________________________________________________________________________________________ conv2_block1_2_bn (BatchNormali (None, 56, 56, 64) 256 conv2_block1_2_conv[0][0] __________________________________________________________________________________________________ conv2_block1_2_relu (Activation (None, 56, 56, 64) 0 conv2_block1_2_bn[0][0] __________________________________________________________________________________________________ conv2_block1_0_conv (Conv2D) (None, 56, 56, 256) 16640 pool1_pool[0][0] __________________________________________________________________________________________________ conv2_block1_3_conv (Conv2D) (None, 56, 56, 256) 16640 conv2_block1_2_relu[0][0] __________________________________________________________________________________________________ conv2_block1_0_bn (BatchNormali (None, 56, 56, 256) 1024 conv2_block1_0_conv[0][0] __________________________________________________________________________________________________ conv2_block1_3_bn (BatchNormali (None, 56, 56, 256) 1024 conv2_block1_3_conv[0][0] __________________________________________________________________________________________________ conv2_block1_add (Add) (None, 56, 56, 256) 0 conv2_block1_0_bn[0][0] conv2_block1_3_bn[0][0] __________________________________________________________________________________________________ conv2_block1_out (Activation) (None, 56, 56, 256) 0 conv2_block1_add[0][0] __________________________________________________________________________________________________ conv2_block2_1_conv (Conv2D) (None, 56, 56, 64) 16448 conv2_block1_out[0][0] __________________________________________________________________________________________________ conv2_block2_1_bn (BatchNormali (None, 56, 56, 64) 256 conv2_block2_1_conv[0][0] __________________________________________________________________________________________________ conv2_block2_1_relu (Activation (None, 56, 56, 64) 0 conv2_block2_1_bn[0][0] __________________________________________________________________________________________________ conv2_block2_2_conv (Conv2D) (None, 56, 56, 64) 36928 conv2_block2_1_relu[0][0] __________________________________________________________________________________________________ conv2_block2_2_bn (BatchNormali (None, 56, 56, 64) 256 conv2_block2_2_conv[0][0] __________________________________________________________________________________________________ conv2_block2_2_relu (Activation (None, 56, 56, 64) 0 conv2_block2_2_bn[0][0] __________________________________________________________________________________________________ conv2_block2_3_conv (Conv2D) (None, 56, 56, 256) 16640 conv2_block2_2_relu[0][0] __________________________________________________________________________________________________ conv2_block2_3_bn (BatchNormali (None, 56, 56, 256) 1024 conv2_block2_3_conv[0][0] __________________________________________________________________________________________________ conv2_block2_add (Add) (None, 56, 56, 256) 0 conv2_block1_out[0][0] conv2_block2_3_bn[0][0] __________________________________________________________________________________________________ conv2_block2_out (Activation) (None, 56, 56, 256) 0 conv2_block2_add[0][0] __________________________________________________________________________________________________ conv2_block3_1_conv (Conv2D) (None, 56, 56, 64) 16448 conv2_block2_out[0][0] __________________________________________________________________________________________________ conv2_block3_1_bn (BatchNormali (None, 56, 56, 64) 256 conv2_block3_1_conv[0][0] __________________________________________________________________________________________________ conv2_block3_1_relu (Activation (None, 56, 56, 64) 0 conv2_block3_1_bn[0][0] __________________________________________________________________________________________________ conv2_block3_2_conv (Conv2D) (None, 56, 56, 64) 36928 conv2_block3_1_relu[0][0] __________________________________________________________________________________________________ conv2_block3_2_bn (BatchNormali (None, 56, 56, 64) 256 conv2_block3_2_conv[0][0] __________________________________________________________________________________________________ conv2_block3_2_relu (Activation (None, 56, 56, 64) 0 conv2_block3_2_bn[0][0] __________________________________________________________________________________________________ conv2_block3_3_conv (Conv2D) (None, 56, 56, 256) 16640 conv2_block3_2_relu[0][0] __________________________________________________________________________________________________ conv2_block3_3_bn (BatchNormali (None, 56, 56, 256) 1024 conv2_block3_3_conv[0][0] __________________________________________________________________________________________________ conv2_block3_add (Add) (None, 56, 56, 256) 0 conv2_block2_out[0][0] conv2_block3_3_bn[0][0] __________________________________________________________________________________________________ conv2_block3_out (Activation) (None, 56, 56, 256) 0 conv2_block3_add[0][0] __________________________________________________________________________________________________ conv3_block1_1_conv (Conv2D) (None, 28, 28, 128) 32896 conv2_block3_out[0][0] __________________________________________________________________________________________________ conv3_block1_1_bn (BatchNormali (None, 28, 28, 128) 512 conv3_block1_1_conv[0][0] __________________________________________________________________________________________________ conv3_block1_1_relu (Activation (None, 28, 28, 128) 0 conv3_block1_1_bn[0][0] __________________________________________________________________________________________________ conv3_block1_2_conv (Conv2D) (None, 28, 28, 128) 147584 conv3_block1_1_relu[0][0] __________________________________________________________________________________________________ conv3_block1_2_bn (BatchNormali (None, 28, 28, 128) 512 conv3_block1_2_conv[0][0] __________________________________________________________________________________________________ conv3_block1_2_relu (Activation (None, 28, 28, 128) 0 conv3_block1_2_bn[0][0] __________________________________________________________________________________________________ conv3_block1_0_conv (Conv2D) (None, 28, 28, 512) 131584 conv2_block3_out[0][0] __________________________________________________________________________________________________ conv3_block1_3_conv (Conv2D) (None, 28, 28, 512) 66048 conv3_block1_2_relu[0][0] __________________________________________________________________________________________________ conv3_block1_0_bn (BatchNormali (None, 28, 28, 512) 2048 conv3_block1_0_conv[0][0] __________________________________________________________________________________________________ conv3_block1_3_bn (BatchNormali (None, 28, 28, 512) 2048 conv3_block1_3_conv[0][0] __________________________________________________________________________________________________ conv3_block1_add (Add) (None, 28, 28, 512) 0 conv3_block1_0_bn[0][0] conv3_block1_3_bn[0][0] __________________________________________________________________________________________________ conv3_block1_out (Activation) (None, 28, 28, 512) 0 conv3_block1_add[0][0] __________________________________________________________________________________________________ conv3_block2_1_conv (Conv2D) (None, 28, 28, 128) 65664 conv3_block1_out[0][0] __________________________________________________________________________________________________ conv3_block2_1_bn (BatchNormali (None, 28, 28, 128) 512 conv3_block2_1_conv[0][0] __________________________________________________________________________________________________ conv3_block2_1_relu (Activation (None, 28, 28, 128) 0 conv3_block2_1_bn[0][0] __________________________________________________________________________________________________ conv3_block2_2_conv (Conv2D) (None, 28, 28, 128) 147584 conv3_block2_1_relu[0][0] __________________________________________________________________________________________________ conv3_block2_2_bn (BatchNormali (None, 28, 28, 128) 512 conv3_block2_2_conv[0][0] __________________________________________________________________________________________________ conv3_block2_2_relu (Activation (None, 28, 28, 128) 0 conv3_block2_2_bn[0][0] __________________________________________________________________________________________________ conv3_block2_3_conv (Conv2D) (None, 28, 28, 512) 66048 conv3_block2_2_relu[0][0] __________________________________________________________________________________________________ conv3_block2_3_bn (BatchNormali (None, 28, 28, 512) 2048 conv3_block2_3_conv[0][0] __________________________________________________________________________________________________ conv3_block2_add (Add) (None, 28, 28, 512) 0 conv3_block1_out[0][0] conv3_block2_3_bn[0][0] __________________________________________________________________________________________________ conv3_block2_out (Activation) (None, 28, 28, 512) 0 conv3_block2_add[0][0] __________________________________________________________________________________________________ conv3_block3_1_conv (Conv2D) (None, 28, 28, 128) 65664 conv3_block2_out[0][0] __________________________________________________________________________________________________ conv3_block3_1_bn (BatchNormali (None, 28, 28, 128) 512 conv3_block3_1_conv[0][0] __________________________________________________________________________________________________ conv3_block3_1_relu (Activation (None, 28, 28, 128) 0 conv3_block3_1_bn[0][0] __________________________________________________________________________________________________ conv3_block3_2_conv (Conv2D) (None, 28, 28, 128) 147584 conv3_block3_1_relu[0][0] __________________________________________________________________________________________________ conv3_block3_2_bn (BatchNormali (None, 28, 28, 128) 512 conv3_block3_2_conv[0][0] __________________________________________________________________________________________________ conv3_block3_2_relu (Activation (None, 28, 28, 128) 0 conv3_block3_2_bn[0][0] __________________________________________________________________________________________________ conv3_block3_3_conv (Conv2D) (None, 28, 28, 512) 66048 conv3_block3_2_relu[0][0] __________________________________________________________________________________________________ conv3_block3_3_bn (BatchNormali (None, 28, 28, 512) 2048 conv3_block3_3_conv[0][0] __________________________________________________________________________________________________ conv3_block3_add (Add) (None, 28, 28, 512) 0 conv3_block2_out[0][0] conv3_block3_3_bn[0][0] __________________________________________________________________________________________________ conv3_block3_out (Activation) (None, 28, 28, 512) 0 conv3_block3_add[0][0] __________________________________________________________________________________________________ conv3_block4_1_conv (Conv2D) (None, 28, 28, 128) 65664 conv3_block3_out[0][0] __________________________________________________________________________________________________ conv3_block4_1_bn (BatchNormali (None, 28, 28, 128) 512 conv3_block4_1_conv[0][0] __________________________________________________________________________________________________ conv3_block4_1_relu (Activation (None, 28, 28, 128) 0 conv3_block4_1_bn[0][0] __________________________________________________________________________________________________ conv3_block4_2_conv (Conv2D) (None, 28, 28, 128) 147584 conv3_block4_1_relu[0][0] __________________________________________________________________________________________________ conv3_block4_2_bn (BatchNormali (None, 28, 28, 128) 512 conv3_block4_2_conv[0][0] __________________________________________________________________________________________________ conv3_block4_2_relu (Activation (None, 28, 28, 128) 0 conv3_block4_2_bn[0][0] __________________________________________________________________________________________________ conv3_block4_3_conv (Conv2D) (None, 28, 28, 512) 66048 conv3_block4_2_relu[0][0] __________________________________________________________________________________________________ conv3_block4_3_bn (BatchNormali (None, 28, 28, 512) 2048 conv3_block4_3_conv[0][0] __________________________________________________________________________________________________ conv3_block4_add (Add) (None, 28, 28, 512) 0 conv3_block3_out[0][0] conv3_block4_3_bn[0][0] __________________________________________________________________________________________________ conv3_block4_out (Activation) (None, 28, 28, 512) 0 conv3_block4_add[0][0] __________________________________________________________________________________________________ conv4_block1_1_conv (Conv2D) (None, 14, 14, 256) 131328 conv3_block4_out[0][0] __________________________________________________________________________________________________ conv4_block1_1_bn (BatchNormali (None, 14, 14, 256) 1024 conv4_block1_1_conv[0][0] __________________________________________________________________________________________________ conv4_block1_1_relu (Activation (None, 14, 14, 256) 0 conv4_block1_1_bn[0][0] __________________________________________________________________________________________________ conv4_block1_2_conv (Conv2D) (None, 14, 14, 256) 590080 conv4_block1_1_relu[0][0] __________________________________________________________________________________________________ conv4_block1_2_bn (BatchNormali (None, 14, 14, 256) 1024 conv4_block1_2_conv[0][0] __________________________________________________________________________________________________ conv4_block1_2_relu (Activation (None, 14, 14, 256) 0 conv4_block1_2_bn[0][0] __________________________________________________________________________________________________ conv4_block1_0_conv (Conv2D) (None, 14, 14, 1024) 525312 conv3_block4_out[0][0] __________________________________________________________________________________________________ conv4_block1_3_conv (Conv2D) (None, 14, 14, 1024) 263168 conv4_block1_2_relu[0][0] __________________________________________________________________________________________________ conv4_block1_0_bn (BatchNormali (None, 14, 14, 1024) 4096 conv4_block1_0_conv[0][0] __________________________________________________________________________________________________ conv4_block1_3_bn (BatchNormali (None, 14, 14, 1024) 4096 conv4_block1_3_conv[0][0] __________________________________________________________________________________________________ conv4_block1_add (Add) (None, 14, 14, 1024) 0 conv4_block1_0_bn[0][0] conv4_block1_3_bn[0][0] __________________________________________________________________________________________________ conv4_block1_out (Activation) (None, 14, 14, 1024) 0 conv4_block1_add[0][0] __________________________________________________________________________________________________ conv4_block2_1_conv (Conv2D) (None, 14, 14, 256) 262400 conv4_block1_out[0][0] __________________________________________________________________________________________________ conv4_block2_1_bn (BatchNormali (None, 14, 14, 256) 1024 conv4_block2_1_conv[0][0] __________________________________________________________________________________________________ conv4_block2_1_relu (Activation (None, 14, 14, 256) 0 conv4_block2_1_bn[0][0] __________________________________________________________________________________________________ conv4_block2_2_conv (Conv2D) (None, 14, 14, 256) 590080 conv4_block2_1_relu[0][0] __________________________________________________________________________________________________ conv4_block2_2_bn (BatchNormali (None, 14, 14, 256) 1024 conv4_block2_2_conv[0][0] __________________________________________________________________________________________________ conv4_block2_2_relu (Activation (None, 14, 14, 256) 0 conv4_block2_2_bn[0][0] __________________________________________________________________________________________________ conv4_block2_3_conv (Conv2D) (None, 14, 14, 1024) 263168 conv4_block2_2_relu[0][0] __________________________________________________________________________________________________ conv4_block2_3_bn (BatchNormali (None, 14, 14, 1024) 4096 conv4_block2_3_conv[0][0] __________________________________________________________________________________________________ conv4_block2_add (Add) (None, 14, 14, 1024) 0 conv4_block1_out[0][0] conv4_block2_3_bn[0][0] __________________________________________________________________________________________________ conv4_block2_out (Activation) (None, 14, 14, 1024) 0 conv4_block2_add[0][0] __________________________________________________________________________________________________ conv4_block3_1_conv (Conv2D) (None, 14, 14, 256) 262400 conv4_block2_out[0][0] __________________________________________________________________________________________________ conv4_block3_1_bn (BatchNormali (None, 14, 14, 256) 1024 conv4_block3_1_conv[0][0] __________________________________________________________________________________________________ conv4_block3_1_relu (Activation (None, 14, 14, 256) 0 conv4_block3_1_bn[0][0] __________________________________________________________________________________________________ conv4_block3_2_conv (Conv2D) (None, 14, 14, 256) 590080 conv4_block3_1_relu[0][0] __________________________________________________________________________________________________ conv4_block3_2_bn (BatchNormali (None, 14, 14, 256) 1024 conv4_block3_2_conv[0][0] __________________________________________________________________________________________________ conv4_block3_2_relu (Activation (None, 14, 14, 256) 0 conv4_block3_2_bn[0][0] __________________________________________________________________________________________________ conv4_block3_3_conv (Conv2D) (None, 14, 14, 1024) 263168 conv4_block3_2_relu[0][0] __________________________________________________________________________________________________ conv4_block3_3_bn (BatchNormali (None, 14, 14, 1024) 4096 conv4_block3_3_conv[0][0] __________________________________________________________________________________________________ conv4_block3_add (Add) (None, 14, 14, 1024) 0 conv4_block2_out[0][0] conv4_block3_3_bn[0][0] __________________________________________________________________________________________________ conv4_block3_out (Activation) (None, 14, 14, 1024) 0 conv4_block3_add[0][0] __________________________________________________________________________________________________ conv4_block4_1_conv (Conv2D) (None, 14, 14, 256) 262400 conv4_block3_out[0][0] __________________________________________________________________________________________________ conv4_block4_1_bn (BatchNormali (None, 14, 14, 256) 1024 conv4_block4_1_conv[0][0] __________________________________________________________________________________________________ conv4_block4_1_relu (Activation (None, 14, 14, 256) 0 conv4_block4_1_bn[0][0] __________________________________________________________________________________________________ conv4_block4_2_conv (Conv2D) (None, 14, 14, 256) 590080 conv4_block4_1_relu[0][0] __________________________________________________________________________________________________ conv4_block4_2_bn (BatchNormali (None, 14, 14, 256) 1024 conv4_block4_2_conv[0][0] __________________________________________________________________________________________________ conv4_block4_2_relu (Activation (None, 14, 14, 256) 0 conv4_block4_2_bn[0][0] __________________________________________________________________________________________________ conv4_block4_3_conv (Conv2D) (None, 14, 14, 1024) 263168 conv4_block4_2_relu[0][0] __________________________________________________________________________________________________ conv4_block4_3_bn (BatchNormali (None, 14, 14, 1024) 4096 conv4_block4_3_conv[0][0] __________________________________________________________________________________________________ conv4_block4_add (Add) (None, 14, 14, 1024) 0 conv4_block3_out[0][0] conv4_block4_3_bn[0][0] __________________________________________________________________________________________________ conv4_block4_out (Activation) (None, 14, 14, 1024) 0 conv4_block4_add[0][0] __________________________________________________________________________________________________ conv4_block5_1_conv (Conv2D) (None, 14, 14, 256) 262400 conv4_block4_out[0][0] __________________________________________________________________________________________________ conv4_block5_1_bn (BatchNormali (None, 14, 14, 256) 1024 conv4_block5_1_conv[0][0] __________________________________________________________________________________________________ conv4_block5_1_relu (Activation (None, 14, 14, 256) 0 conv4_block5_1_bn[0][0] __________________________________________________________________________________________________ conv4_block5_2_conv (Conv2D) (None, 14, 14, 256) 590080 conv4_block5_1_relu[0][0] __________________________________________________________________________________________________ conv4_block5_2_bn (BatchNormali (None, 14, 14, 256) 1024 conv4_block5_2_conv[0][0] __________________________________________________________________________________________________ conv4_block5_2_relu (Activation (None, 14, 14, 256) 0 conv4_block5_2_bn[0][0] __________________________________________________________________________________________________ conv4_block5_3_conv (Conv2D) (None, 14, 14, 1024) 263168 conv4_block5_2_relu[0][0] __________________________________________________________________________________________________ conv4_block5_3_bn (BatchNormali (None, 14, 14, 1024) 4096 conv4_block5_3_conv[0][0] __________________________________________________________________________________________________ conv4_block5_add (Add) (None, 14, 14, 1024) 0 conv4_block4_out[0][0] conv4_block5_3_bn[0][0] __________________________________________________________________________________________________ conv4_block5_out (Activation) (None, 14, 14, 1024) 0 conv4_block5_add[0][0] __________________________________________________________________________________________________ conv4_block6_1_conv (Conv2D) (None, 14, 14, 256) 262400 conv4_block5_out[0][0] __________________________________________________________________________________________________ conv4_block6_1_bn (BatchNormali (None, 14, 14, 256) 1024 conv4_block6_1_conv[0][0] __________________________________________________________________________________________________ conv4_block6_1_relu (Activation (None, 14, 14, 256) 0 conv4_block6_1_bn[0][0] __________________________________________________________________________________________________ conv4_block6_2_conv (Conv2D) (None, 14, 14, 256) 590080 conv4_block6_1_relu[0][0] __________________________________________________________________________________________________ conv4_block6_2_bn (BatchNormali (None, 14, 14, 256) 1024 conv4_block6_2_conv[0][0] __________________________________________________________________________________________________ conv4_block6_2_relu (Activation (None, 14, 14, 256) 0 conv4_block6_2_bn[0][0] __________________________________________________________________________________________________ conv4_block6_3_conv (Conv2D) (None, 14, 14, 1024) 263168 conv4_block6_2_relu[0][0] __________________________________________________________________________________________________ conv4_block6_3_bn (BatchNormali (None, 14, 14, 1024) 4096 conv4_block6_3_conv[0][0] __________________________________________________________________________________________________ conv4_block6_add (Add) (None, 14, 14, 1024) 0 conv4_block5_out[0][0] conv4_block6_3_bn[0][0] __________________________________________________________________________________________________ conv4_block6_out (Activation) (None, 14, 14, 1024) 0 conv4_block6_add[0][0] __________________________________________________________________________________________________ conv5_block1_1_conv (Conv2D) (None, 7, 7, 512) 524800 conv4_block6_out[0][0] __________________________________________________________________________________________________ conv5_block1_1_bn (BatchNormali (None, 7, 7, 512) 2048 conv5_block1_1_conv[0][0] __________________________________________________________________________________________________ conv5_block1_1_relu (Activation (None, 7, 7, 512) 0 conv5_block1_1_bn[0][0] __________________________________________________________________________________________________ conv5_block1_2_conv (Conv2D) (None, 7, 7, 512) 2359808 conv5_block1_1_relu[0][0] __________________________________________________________________________________________________ conv5_block1_2_bn (BatchNormali (None, 7, 7, 512) 2048 conv5_block1_2_conv[0][0] __________________________________________________________________________________________________ conv5_block1_2_relu (Activation (None, 7, 7, 512) 0 conv5_block1_2_bn[0][0] __________________________________________________________________________________________________ conv5_block1_0_conv (Conv2D) (None, 7, 7, 2048) 2099200 conv4_block6_out[0][0] __________________________________________________________________________________________________ conv5_block1_3_conv (Conv2D) (None, 7, 7, 2048) 1050624 conv5_block1_2_relu[0][0] __________________________________________________________________________________________________ conv5_block1_0_bn (BatchNormali (None, 7, 7, 2048) 8192 conv5_block1_0_conv[0][0] __________________________________________________________________________________________________ conv5_block1_3_bn (BatchNormali (None, 7, 7, 2048) 8192 conv5_block1_3_conv[0][0] __________________________________________________________________________________________________ conv5_block1_add (Add) (None, 7, 7, 2048) 0 conv5_block1_0_bn[0][0] conv5_block1_3_bn[0][0] __________________________________________________________________________________________________ conv5_block1_out (Activation) (None, 7, 7, 2048) 0 conv5_block1_add[0][0] __________________________________________________________________________________________________ conv5_block2_1_conv (Conv2D) (None, 7, 7, 512) 1049088 conv5_block1_out[0][0] __________________________________________________________________________________________________ conv5_block2_1_bn (BatchNormali (None, 7, 7, 512) 2048 conv5_block2_1_conv[0][0] __________________________________________________________________________________________________ conv5_block2_1_relu (Activation (None, 7, 7, 512) 0 conv5_block2_1_bn[0][0] __________________________________________________________________________________________________ conv5_block2_2_conv (Conv2D) (None, 7, 7, 512) 2359808 conv5_block2_1_relu[0][0] __________________________________________________________________________________________________ conv5_block2_2_bn (BatchNormali (None, 7, 7, 512) 2048 conv5_block2_2_conv[0][0] __________________________________________________________________________________________________ conv5_block2_2_relu (Activation (None, 7, 7, 512) 0 conv5_block2_2_bn[0][0] __________________________________________________________________________________________________ conv5_block2_3_conv (Conv2D) (None, 7, 7, 2048) 1050624 conv5_block2_2_relu[0][0] __________________________________________________________________________________________________ conv5_block2_3_bn (BatchNormali (None, 7, 7, 2048) 8192 conv5_block2_3_conv[0][0] __________________________________________________________________________________________________ conv5_block2_add (Add) (None, 7, 7, 2048) 0 conv5_block1_out[0][0] conv5_block2_3_bn[0][0] __________________________________________________________________________________________________ conv5_block2_out (Activation) (None, 7, 7, 2048) 0 conv5_block2_add[0][0] __________________________________________________________________________________________________ conv5_block3_1_conv (Conv2D) (None, 7, 7, 512) 1049088 conv5_block2_out[0][0] __________________________________________________________________________________________________ conv5_block3_1_bn (BatchNormali (None, 7, 7, 512) 2048 conv5_block3_1_conv[0][0] __________________________________________________________________________________________________ conv5_block3_1_relu (Activation (None, 7, 7, 512) 0 conv5_block3_1_bn[0][0] __________________________________________________________________________________________________ conv5_block3_2_conv (Conv2D) (None, 7, 7, 512) 2359808 conv5_block3_1_relu[0][0] __________________________________________________________________________________________________ conv5_block3_2_bn (BatchNormali (None, 7, 7, 512) 2048 conv5_block3_2_conv[0][0] __________________________________________________________________________________________________ conv5_block3_2_relu (Activation (None, 7, 7, 512) 0 conv5_block3_2_bn[0][0] __________________________________________________________________________________________________ conv5_block3_3_conv (Conv2D) (None, 7, 7, 2048) 1050624 conv5_block3_2_relu[0][0] __________________________________________________________________________________________________ conv5_block3_3_bn (BatchNormali (None, 7, 7, 2048) 8192 conv5_block3_3_conv[0][0] __________________________________________________________________________________________________ conv5_block3_add (Add) (None, 7, 7, 2048) 0 conv5_block2_out[0][0] conv5_block3_3_bn[0][0] __________________________________________________________________________________________________ conv5_block3_out (Activation) (None, 7, 7, 2048) 0 conv5_block3_add[0][0] ================================================================================================== Total params: 23,587,712 Trainable params: 23,534,592 Non-trainable params: 53,120 __________________________________________________________________________________________________ . In order to train our model we does not need to train all weights. We have to train only last
…
t.plot(test_acc,label=&#39;test&#39;) plt.legend() plt.show() . train_loss = history.history[&#39;loss&#39;] test_loss = history.history[&#39;val_loss&#39;] plt.title(&quot;Losses&quot;) plt.xlabel(&quot;Epochs&quot;) plt.ylabel(&quot;Loss&quot;) train = plt.plot(train_loss,label=&#39;train&#39;) test = plt.plot(test_loss,label=&#39;test&#39;) plt.legend() plt.show() . model.summary() . Model: &#34;sequential&#34; _________________________________________________________________ Layer (type) Output Shape Param # ================================================================= lambda (Lambda) (None, 224, 224, 3) 0 _________________________________________________________________ resnet50 (Functional) (None, 7, 7, 2048) 23587712 _________________________________________________________________ flatten (Flatten) (None, 100352) 0 _________________________________________________________________ batch_normalization (BatchNo (None, 100352) 401408 _________________________________________________________________ dense (Dense) (None, 256) 25690368 _________________________________________________________________ dropout (Dropout) (None, 256) 0 _________________________________________________________________ batch_normalization_1 (Batch (None, 256) 1024 _________________________________________________________________ dense_1 (Dense) (None, 128) 32896 _________________________________________________________________ dropout_1 (Dropout) (None, 128) 0 _________________________________________________________________ batch_normalization_2 (Batch (None, 128) 512 _________________________________________________________________ dense_2 (Dense) (None, 64) 8256 _________________________________________________________________ dropout_2 (Dropout) (None, 64) 0 _________________________________________________________________ batch_normalization_3 (Batch (None, 64) 256 _________________________________________________________________ dense_3 (Dense) (None, 12) 780 ================================================================= Total params: 49,723,212 Trainable params: 40,909,900 Non-trainable params: 8,813,312 _________________________________________________________________ . #model.save(&#39;/content/drive/MyDrive/ResNet Project/fingers.h5&#39;) #load model model = tf.keras.models.load_model(dataset_dir+&#39;fingers.h5&#39;) . Try Your Own Image &amp;
…
